UNO-Business Forecasting/Assignment3/model.pt (torch, 33164 bytes, 2 tensors)

fc.weight f4 [10, 784]
0	0xbd5434cf	-0.051808175
1	0x3f0277dc	0.5096414
2	0x3fdee2f6	1.7413013
3	0x3f196958	0.59926367
4	0xc0e44170	-7.132988
5	0xc0cc0363	-6.3754134
6	0xbf3d1fd3	-0.73876685
7	0xbc8cf657	-0.017207308
8	0x409720e1	4.7227635
9	0x40bec57f	5.9616084
10	0xc0224d1a	-2.535956
11	0x4040dfd4	3.0136614
12	0x40624400	3.5354004
13	0xc132320a	-11.137217
14	0x3fdc9110	1.723177
15	0xc0577870	-3.366726
16	0x4096f466	4.717334
17	0x4004ad9c	2.0730963
18	0x3fca3f6d	1.5800606
19	0xbf0b0367	-0.54302067
20	0x410fa896	8.978659
21	0xc0bc88bf	-5.8916926
22	0xc10e1f0a	-8.882578
23	0xc0f97b85	-7.796328
24	0x404296b2	3.0404477
25	0x3f1beb64	0.6090605
26	0xbf0e3155	-0.55544025
27	0x401d7a6c	2.460597
28	0x3e0e26de	0.13882014
29	0x3ed8ab73	0.42318305
30	0x40dd0e1c	6.9079723
31	0x4070a7d3	3.7602432
32	0xbe991c58	-0.29904437
33	0xc0e526d8	-7.1609917
34	0xc13bf321	-11.746858
35	0xbf193981	-0.5985337
36	0xbf8636f6	-1.0485523
37	0xc087c467	-4.242725
38	0xbfbfb7de	-1.4977987
39	0x3f93a51f	1.1534766
40	0xc05a21af	-3.408306
41	0x3f89ea89	1.07747
42	0x403d1d03	2.9548957
43	0x40891331	4.2835927
44	0xbf1c49e6	-0.6105026
45	0xbf0e1d34	-0.5551331
46	0x402ab0bf	2.6670377
47	0xbc9750fc	-0.018471234
48	0x403687f0	2.852047
49	0x3f7587c8	0.9591031
50	0xc0c998b4	-6.2998905
51	0xc08cda77	-4.401668
52	0x40891d8d	4.2848573
53	0x41034779	8.204949
54	0xbf875cc4	-1.0575185
55	0x408ec847	4.461948
56	0xbe498c1a	-0.19682351
57	0xc00d0483	-2.2034004
58	0xc03b0af0	-2.9225426
59	0x4103fd6b	8.24937
60	0x3fcfc835	1.6232973
61	0x3f4e8173	0.80666274
62	0x3f0f4d21	0.55977064
63	0x4058dec4	3.3885965
64	0x40b01c52	5.503457
65	0xc0238e6e	-2.5555682
66	0x402ff505	2.7493298
67	0xc0059de7	-2.0877626
68	0x400ca78e	2.1977267
69	0x4084574a	4.1356554
70	0x3ee0f94b	0.43940195
71	0x3ff72019	1.930667
72	0xbfba8289	-1.4571086
73	0x40364f97	2.8486078
74	0xc0036f7f	-2.0536802
75	0xbfd9e9e5	-1.7024504
76	0x3f069f1f	0.5258655
77	0x3f26743c	0.6502111
78	0x4071e01b	3.7793033
79	0xbf8a7399	-1.0816528
80	0x418bc010	17.46878
81	0x3fa9ccb7	1.3265599
82	0xbeac6194	-0.33668196
83	0x3faf7626	1.3707931
84	0xc03ee5da	-2.982779
85	0xc03862cb	-2.8810298
86	0x40c92561	6.285813
87	0xc08e60d3	-4.4493194
88	0x3f73e8da	0.9527718
89	0x3f8d604b	1.1045011
90	0x401a6fbd	2.41307
91	0x3fb9edf9	1.4525748
92	0x3f5b653c	0.85701346
93	0x40381130	2.876049
94	0x3f8632a9	1.048421
95	0xc0206bdb	-2.506583
96	0x40221287	2.5323808
97	0x3c67eb34	0.014155198
98	0x3f01c203	0.50686663
99	0xbf4a3faa	-0.79003394
100	0x3fd8dad4	1.6941781
101	0xbe690194	-0.22754508
102	0xbfa32991	-1.274706
103	0xbdebca6b	-0.115132175
104	0xc074579e	-3.8178477
105	0x40b1b326	5.5531187
106	0xc045d52d	-3.0911362
107	0x409fab91	4.989693
108	0x410b91e3	8.723117
109	0xbf81be2a	-1.0136158
110	0x3cc07012	0.02349094
111	0xbf60bdf2	-0.87789834
112	0xbfe6152f	-1.7975215
113	0xbf979ca6	-1.184468
114	0x3f66b0c6	0.90113485
115	0x4077e184	3.8731394
116	0xc0acdaeb	-5.4017234
117	0xbfba6d1d	-1.4564549
118	0x40466fdb	3.100577
119	0xc04ecf84	-3.2314157
120	0x3e06099b	0.13089602
121	0x40e3d8a8	7.1201973
122	0x3f33d747	0.7025036
123	0xc01120cf	-2.2676275
124	0x402a5b8f	2.6618383
125	0x401b89c7	2.4302843
126	0xbfec98e6	-1.8484161
127	0x3f1ef9b8	0.6209979
128	0xc04c3eed	-3.1913407
129	0xc078a175	-3.8848546
130	0x3f605073	0.87622756
131	0x3f4f970d	0.8108986
132	0x3f8c6451	1.0968114
133	0x3df7548d	0.12076674
134	0x40af5657	5.4792895
135	0x40d2c393	6.586374
136	0x407065d1	3.7562144
137	0xc02469ff	-2.5689695
138	0xc09fb2fd	-4.990599
139	0xbfbcd061	-1.4751092
140	0x3f70db69	0.94084793
141	0xc0930556	-4.5944014
142	0xc07b254b	-3.9241512
143	0xc0a5398e	-5.1632757
144	0x416c2b66	14.760595
145	0xbeca9ca2	-0.39572626
146	0x408c951d	4.3932023
147	0xc06d82d0	-3.7111092
148	0xbfd07278	-1.6284933
149	0xc0695076	-3.645536
150	0xc08486c5	-4.1414514
151	0xbf4f308b	-0.80933446
152	0x3fb06edb	1.378383
153	0xc0152f3f	-2.3310087
154	0xbecad346	-0.39614314
155	0x3f9a1e10	1.2040424
156	0xc08b336d	-4.3500276
157	0x4087da4f	4.245399
158	0x3f80015c	1.0000415
159	0xbf3f14e7	-0.7464127
160	0x4063be31	3.5584834
161	0xc0c7e467	-6.246631
162	0x4008aa52	2.1353955
163	0xc08f5073	-4.4785705
164	0xbfea5c69	-1.8309451
165	0x406c9b31	3.6969721
166	0xc0b9dac2	-5.807954
167	0x401a5ddb	2.4119785
168	0x3f91d87b	1.139419
169	0x4087a1ee	4.238517
170	0x409a29d4	4.817606
171	0x3ebe12be	0.37123674
172	0xc008034c	-2.1252012
173	0x3fea441b	1.8302034
174	0x407cf175	3.9522374
175	0x40219fbc	2.5253744
176	0x40cd5fa6	6.417926
177	0xbfc83e95	-1.5644099
178	0x40e0a345	7.0199304
179	0x3ea7f72e	0.3280577
180	0xc09b6a08	-4.8566933
181	0x40d41040	6.6269836
182	0xbe8286d1	-0.25493482
183	0x3f5ec457	0.8701834
184	0xbeb520e7	-0.35376665
185	0xc028ccde	-2.637504
186	0xbef48ab1	-0.47762063
187	0x3fff81a5	1.9961439
188	0xc0dd9ec9	-6.925633
189	0xbff54fa3	-1.9164928
190	0x3fa4dd91	1.2880117
191	0x40981c0d	4.753424
192	0x402c0fe9	2.688471
193	0x40aebbd0	5.4604263
194	0xc0016ac0	-2.0221405
195	0x3ff2bb43	1.8963398
196	0x40dfce3e	6.993926
197	0x40f419b5	7.628138
198	0x3f6770bb	0.9040639
199	0x3fc8766a	1.5661137
200	0x3ed419ae	0.41425842
201	0x3fc43906	1.5329902
202	0xc031f3ed	-2.780513
203	0xbf82468a	-1.0177777
204	0xbf9a60cd	-1.2060791
205	0xc05c2c9a	-3.4402223
206	0xc030871f	-2.7582471
207	0x408072ec	4.0140285
208	0x3d3c3280	0.045946598
209	0x3f4af98c	0.7928703
210	0xc0a5059d	-5.156935
211	0xbfb1a5ae	-1.3878686
212	0x40163a60	2.347313
213	0x3f75b681	0.95981604
214	0xc00e91cd	-2.227649
215	0x40532835	3.299329
216	0x4047494b	3.1138484
217	0x3f1fd518	0.6243453
218	0x4098163f	4.7527156
219	0xbf0a5c04	-0.54046655
220	0x400d7490	2.2102394
221	0x407fa52a	3.9944558
222	0x401b6472	2.4280057
223	0x3f2cb17b	0.67458314
224	0x40c15303	6.0413833
225	0x40136af4	2.303403
226	0x40973758	4.725506
227	0x3f9a777f	1.2067717
228	0x4106d779	8.427606
229	0x3f8378e5	1.0271269
230	0x40f5fa68	7.686817
231	0x40ea1c51	7.3159566
232	0x3f0c1bbe	0.5472983
233	0x40b700e8	5.7188606
234	0x3f7261cb	0.9468047
235	0xc060a5b0	-3.5101128
236	0x3ff04dea	1.8773777
237	0xbfa81b99	-1.3133422
238	0xbf073d56	-0.52827966
239	0x3f72a76d	0.9478672
240	0xbfa841c4	-1.314507
241	0x400bae24	2.1825037
242	0x3f6ce4bc	0.9253652
243	0x404bc636	3.1839728
244	0x3ed784f4	0.42093623
245	0xc02b7f43	-2.6796424
246	0xbed556fe	-0.41667932
247	0xc0ab7ac0	-5.358734
248	0x3ff2ee9a	1.8979065
249	0xc03147aa	-2.769999
250	0xc0c508de	-6.1573324
251	0x3f59991c	0.8499925
252	0x40838578	4.1100426
253	0x3ffdc686	1.982621
254	0x408241a0	4.070511
255	0x4107d012	8.488298

fc.bias f4 [10]
0	0x3f71d1b6	0.9446062
1	0xbf4210eb	-0.75807065
2	0xbe0d0363	-0.13770823
3	0x3fcae2e2	1.5850489
4	0xc09a36e7	-4.819202
5	0x40790d59	3.8914397
6	0x403e00ca	2.9687982
7	0xbf151ec4	-0.5825007
8	0xbf25015d	-0.64455205
9	0xc017cbca	-2.3718133
